backend/models/crop_recommender_float16.tflite (tflite, 25572 bytes, 6 tensors)

arith.constant f2 [128, 12]
00000000: 3235 b82e 5bb4 0ba4 a033 1c2c d334 acb4
00000010: 2c28 a5b3 4d2f 7eb3 5d2b 8ab2 e6b6 fcb2
00000020: faad a42d 0bb5 392e 9a2e b834 75b4 a6b0
00000030: ddb4 e732 1933 8b31 fb37 6c21 0014 e7a9
00000040: 2c23 fe30 7bb3 f7b1 ac23 a5ae bcae 5534
00000050: f925 7f29 93b2 a8b7 2d38 85aa 1dae 9531
00000060: 7db3 e4ac 58b2 8598 9bae bb2f 3f35 fd31
00000070: 8bb4 26ad 3ea5 7aaf 44b2 d52c 3caf 0b24
00000080: a6b5 9cb0 9430 4437 a3aa fab6 47ad 94b0
00000090: 7caf deaa ad30 2a30 12ab 88af af26 9234
000000a0: 30b3 a6b4 e536 9aa4 b9a1 d19e c3a6 c231
000000b0: 68b0 f5af 4335 3f33 a9ab 40b8 2936 8eac
000000c0: 812f a7b4 b135 1caa 3cb7 bc2c 6e31 1db6
000000d0: bda4 22b2 f534 19b0 4736 aab0 e031 deb0
000000e0: 72b5 ed31 4c25 27ac bcb4 9737 6c32 90b4
000000f0: acb3 dbb1 8db2 e427 eab1 d3a2 8ab6 d1b7
00000100: 6c33 b7a5 1934 ab32 3bb4 902d a928 8328
00000110: aeb3 73b5 b132 a4b5 dead e738 5aa7 c5b1
00000120: 38b1 6336 9523 14a8 5432 de9c 68b3 9db2
00000130: 4237 83b5 082f dfaa dfb0 8ba0 7633 6d26
00000140: 13a9 35ac 25b8 702c d4b8 e7b6 0d35 db33
00000150: 3034 90b1 27ba 39ac 3695 3b28 e325 68a9
00000160: b0b6 1832 e0aa eab7 ca35 d631 2aae 552b
00000170: 2c94 5bb2 6d2d f236 6ab2 44b1 a11b 5727
00000180: 93ab 5cb0 b8b7 15ad a033 fe30 142b d2b0
00000190: 60b1 03b8 d134 09a9 812a beb4 4e31 8cb0
000001a0: eb30 4eb2 1bb4 3f2a f6ad 15b0 41ac 2839
000001b0: b835 87b4 63b7 55ac 74a7 a32c 1c2e 4e31
000001c0: 67ac 761d e4a9 6224 6db4 8330 efad 3930
000001d0: 0733 ec31 4831 3db7 d035 6926 be24 95b1
000001e0: 9b34 3830 33a5 3daf c7b5 10aa 0b31 b032
000001f0: c72c d5ab f72c 5dac f6b4 76a5 2bb8 a8ab
0.3247 0.105 -0.2722 -0.0158 0.2383 0.0642 0.3015 -0.292
0.0326 -0.2389 0.1141 -0.2341 0.05753 -0.2043 -0.4312 -0.2183
-0.0934 0.08813 -0.3152 0.0972 0.10315 0.295 -0.2786 -0.1453
-0.304 0.2157 0.2218 0.1732 0.4988 0.01059 0.000977 -0.0461
0.01401 0.156 -0.2338 -0.1864 0.014984 -0.1038 -0.1052 0.2708
0.02333 0.04294 -0.2054 -0.4785 0.522 -0.05093 -0.0955 0.1744
-0.234 -0.0764 -0.1982 -0.002207 -0.1032 0.1208 0.328 0.1871
-0.284 -0.08044 -0.02048 -0.1168 -0.1958 0.0755 -0.11304 0.0158
-0.353 -0.144 0.1431 0.454 -0.05185 -0.436 -0.08246 -0.1431
-0.11694 -0.05365 0.1461 0.1301 -0.05524 -0.1177 0.02611 0.2856
-0.2246 -0.2905 0.431 -0.01797 -0.01118 -0.006657 -0.02641 0.1799
-0.1377 -0.1243 0.3289 0.2264 -0.05984 -0.5312 0.385 -0.07117
0.11725 -0.2908 0.3557 -0.04773 -0.4521 0.074 0.1697 -0.382
-0.01851 -0.1917 0.3098 -0.128 0.3923 -0.1458 0.1836 -0.1521
-0.3403 0.1852 0.02069 -0.0649 -0.296 0.4744 0.2007 -0.2852
-0.2397 -0.183 -0.2047 0.03082 -0.1848 -0.01333 -0.4087 -0.4885
0.2319 -0.02232 0.256 0.2084 -0.2644 0.0869 0.0364 0.03525
-0.24 -0.3406 0.2091 -0.3525 -0.0917 0.613 -0.02872 -0.1803
-0.1631 0.3992 0.01481 -0.03186 0.1978 -0.004753 -0.2314 -0.2067
0.4536 -0.3445 0.10986 -0.05368 -0.1522 -0.00887 0.2332 0.0251
-0.03964 -0.06573 -0.518 0.06934 -0.6035 -0.4314 0.3157 0.2455
0.2617 -0.1738 -0.769 -0.066 -0.001272 0.03305 0.023 -0.04224
-0.418 0.1904 -0.0537 -0.4946 0.3618 0.1824 -0.0963 0.05728
-0.001019 -0.1986 0.0848 0.434 -0.2004 -0.1646 0.003725 0.02867
-0.05917 -0.1362 -0.4824 -0.0794 0.2383 0.156 0.0553 -0.1506
-0.168 -0.5015 0.301 -0.03934 0.0508 -0.2964 0.1658 -0.1421
0.1537 -0.197 -0.2566 0.0488 -0.09314 -0.1276 -0.06647 0.6445
0.3574 -0.283 -0.4617 -0.0677 -0.02911 0.07245 0.09546 0.1658
-0.0688 0.005333 -0.04602 0.01712 -0.2766 0.141 -0.0927 0.132
0.2196 0.185 0.165 -0.4524 0.3633 0.02504 0.01852 -0.1744
0.2878 0.1318 -0.02031 -0.1131 -0.361 -0.04736 0.1576 0.209
0.07465 -0.0612 0.0776 -0.0682 -0.31 -0.02133 -0.521 -0.0598

arith.constant1 f2 [128]
00000000: dca6 43a5 d3a9 8130 fb83 2826 faa2 9c1a
00000010: 8131 ddac e82c 4723 3f2d 42a8 5db0 702c
00000020: 59b2 fc28 efab 1bae b1a8 d8a8 a52b d79d
00000030: 49b2 3daf 692c 3699 0225 0826 3fad 4727
00000040: 02aa 4930 a523 97ac 0f2d 09ae 6822 60a7
00000050: b8ad 922d 5130 a32d 022d bca8 c72e af24
00000060: 4726 9330 9aae 3833 4fae e8b1 e7a9 0130
00000070: f6a9 552a cf2d b9ad f72c 25a4 12ae 142e
00000080: 9b29 ab30 dd25 2aa9 18b0 2628 902f 68a8
00000090: 14a9 2fa0 7ea9 9714 94af 70a9 e023 39a9
000000a0: 9826 bab0 b1ab 4427 46a6 382c 9e2c 46a9
000000b0: 2b29 47ac 6dac b2ae f1aa 0d2c 43b0 bb26
000000c0: bf25 1b2e 95a5 78ae dfac cd29 bf2b 092e
000000d0: d8a5 eb28 162f 942e 2aa1 9f29 70ac b9a6
000000e0: ba2c 032a 20a4 70a8 b52c b0a5 c324 df30
000000f0: be2c ad99 dead 99ad 6a2c c331 0ea8 d4a1
-0.0268 -0.02055 -0.0455 0.1407 -6.074e-05 0.02405 -0.013626 0.003227
0.172 -0.076 0.07666 0.01421 0.082 -0.03326 -0.1364 0.06934
-0.1984 0.03894 -0.06198 -0.0954 -0.03665 -0.03784 0.05972 -0.005703
-0.1964 -0.1131 0.0689 -0.002544 0.01956 0.02356 -0.082 0.02843
-0.04694 0.1339 0.01493 -0.0717 0.07904 -0.0943 0.01251 -0.02881
-0.08936 0.08704 0.1349 0.0881 0.07825 -0.037 0.1059 0.0183
0.02452 0.143 -0.10315 0.2256 -0.0986 -0.1846 -0.0461 0.1251
-0.04657 0.04947 0.09076 -0.0894 0.0776 -0.01619 -0.09485 0.095
0.0438 0.1459 0.0229 -0.04034 -0.1279 0.0324 0.11816 -0.03442
-0.03967 -0.00817 -0.0429 0.001121 -0.1184 -0.04248 0.01538 -0.0408
0.02576 -0.1477 -0.0601 0.02838 -0.0245 0.0659 0.07214 -0.0412
0.04037 -0.06683 -0.06915 -0.1046 -0.05423 0.0633 -0.1332 0.02629
0.02245 0.0954 -0.0218 -0.1011 -0.0761 0.04532 0.06052 0.0943
-0.02283 0.03842 0.1107 0.1028 -0.010086 0.0439 -0.06934 -0.02626
0.07385 0.04697 -0.01611 -0.03467 0.07355 -0.02222 0.0186 0.1522
0.0741 -0.002771 -0.0917 -0.08746 0.069 0.18 -0.03168 -0.01138

arith.constant2 f2 [64]
00000000: 6698 6c30 c131 af31 ee1d 472d 142f 0629
00000010: be2e 49ac 6bae 0da1 52b0 cfa4 0d30 422d
00000020: c92e 4b33 242d cc30 1ca8 7c2a 2630 392c
00000030: de31 dbb0 e82d 992b 1530 b91f 862e 59a3
00000040: cbb0 0f2e ce2d 5e2a e6aa 0525 5628 9f32
00000050: c127 d523 4131 44a8 f129 852d 7a23 e32a
00000060: 32ad 772e 832f 3582 382a d731 fb2d 4d29
00000070: 392d dda5 5d30 5418 49a3 b831 592f ab30
-0.002148 0.1382 0.1798 0.1776 0.00579 0.08246 0.1106 0.03925
0.10535 -0.06696 -0.1003 -0.009865 -0.135 -0.01878 0.1266 0.08215
0.106 0.2279 0.0803 0.1499 -0.0321 0.05066 0.1296 0.066
0.1833 -0.1517 0.0923 0.05936 0.1276 0.00754 0.1019 -0.01435
-0.1498 0.09467 0.0907 0.04974 -0.0539 0.0196 0.03387 0.2069
0.03029 0.0153 0.1642 -0.03333 0.04642 0.08624 0.0146 0.0538
-0.0812 0.101 0.1174 -3.37e-05 0.04858 0.1825 0.09344 0.0414
0.0816 -0.0229 0.1364 0.002113 -0.01423 0.1787 0.1148 0.1459

arith.constant3 f2 [22]
00000000: 61ae 2e31 bd26 30b4 d5ab 0e08 d7b0 a8b2
00000010: aa35 28a7 87a6 fa31 aaac 94b2 862d aa2a
00000020: c0af b718 209c 8a34 c2ac cdad
-0.0997 0.1619 0.02632 -0.2617 -0.0612 0.0001237 -0.1512 -0.208
0.354 -0.02795 -0.0255 0.1868 -0.0729 -0.2056 0.0863 0.05206
-0.1211 0.002302 -0.00403 0.2837 -0.07434 -0.09064

arith.constant4 f2 [64, 128]
00000000: 302f 4fb2 0eb0 50b0 8d34 5c22 ef2e 9f35
00000010: c22d 772c 5f2c 2a29 60b4 64ae ec2e 0c2c
00000020: 062e 1ab0 6826 d631 fa24 2933 922a 192a
00000030: 7b2b 30b2 9436 1aa8 e62a 4fb1 f92f 5fac
00000040: e5b3 1930 dbb5 91ad 73a5 db2c f3ad e62e
00000050: 2c2d d332 f8ae ff2b 2ab4 2630 ed21 6a34
00000060: 22b6 90ad 13a7 3aa9 f4b1 b0aa 6034 ce2f
00000070: 1ea7 8337 a629 3629 6d33 c2ab da24 0ead
00000080: d7ad 14ae bca8 e730 5030 07b3 feb3 b02e
00000090: 9b32 022d aa30 d32c 31a9 2fab f5af 6f33
000000a0: 22a8 bd2f 88b1 122f 5dad 292e d433 c72a
000000b0: 9bad c3a6 71a6 222d 3332 4b20 dba7 6920
000000c0: 1235 2834 9a22 fe2f 3dad 1432 97a9 112a
000000d0: 92a1 a52a 8c34 59b0 542f c1a8 24ad a5a6
000000e0: 9d32 222a f5ac 8f9c ab2a 6314 64ac 3e25
000000f0: 3e36 b12d 2030 8c26 1331 edb0 9a36 34a8
00000100: 6634 5f29 1cb5 9930 c598 ffb3 9dad 442e
00000110: a72e df2e 5923 fab6 05a7 0cb4 6b37 1530
00000120: 7521 e9a7 8a35 242e 03a1 362c cdb2 e6b4
00000130: 3d34 d526 9328 0134 f62b 3b31 3fb2 e133
00000140: edb4 6d30 1933 f326 dd0b 792c 7832 4db1
00000150: 0ab1 87ac 2a25 bfb1 63ae dc32 ad2d edaa
00000160: 2436 15b5 e730 14a8 b2a7 8d33 1dad 9734
00000170: 4db3 2832 6329 24ae bcaf 1427 3d32 6632
00000180: 8033 c832 15b1 2bb0 f2b1 482c 0729 9cb2
00000190: 7ab4 f32b 4eb2 b1af c7aa 0f20 d7af e3a6
000001a0: ae24 31b2 a0b1 9a2e 5433 2eb3 9f2f 38b1
000001b0: 6431 932f f82a f030 7032 9fa1 d026 8c24
000001c0: 24ae 76b1 0ab0 92b0 bdb0 3ca8 1c30 af2c
000001d0: 05b0 0133 46af 2c23 372d 2410 9d30 0834
000001e0: c72b 30ae 4d32 18af 7932 45b7 7e28 fca7
000001f0: c331 0bb6 8334 f928 f325 3830 3e30 a42f
0.1123 -0.1971 -0.1267 -0.1348 0.2844 0.01242 0.10834 0.3513
0.08997 0.06976 0.0683 0.04034 -0.2734 -0.09985 0.10815 0.06323
0.0941 -0.1282 0.02502 0.1824 0.01944 0.2238 0.05133 0.04764
0.05844 -0.1934 0.4111 -0.03204 0.0539 -0.1659 0.1246 -0.0683
-0.2467 0.128 -0.366 -0.087 -0.02129 0.07587 -0.09296 0.1078
0.0808 0.2133 -0.1089 0.06247 -0.2603 0.1296 0.01157 0.276
-0.3833 -0.0869 -0.02763 -0.04083 -0.186 -0.05225 0.2734 0.12195
-0.0278 0.4695 0.04413 0.0407 0.232 -0.0606 0.01895 -0.079
-0.09125 -0.095 -0.037 0.1532 0.1348 -0.2196 -0.2498 0.1045
0.2064 0.07825 0.1458 0.0754 -0.04056 -0.05612 -0.1243 0.2323
-0.0323 0.1209 -0.1729 0.1105 -0.0838 0.09625 0.2446 0.05295
-0.0876 -0.02641 -0.02516 0.0802 0.1937 0.008385 -0.03069 0.00861
0.317 0.2598 0.01289 0.1249 -0.08185 0.19 -0.04367 0.0474
-0.01088 0.0519 0.2842 -0.1359 0.1145 -0.03714 -0.0803 -0.02596
0.2067 0.0479 -0.07745 -0.00445 0.0521 0.001071 -0.0686 0.02048
0.3901 0.0889 0.1289 0.02557 0.1586 -0.1539 0.4126 -0.03284
0.275 0.04196 -0.3193 0.1437 -0.002329 -0.2499 -0.0877 0.0979
0.10394 0.10736 0.01435 -0.436 -0.02742 -0.253 0.4636 0.1276
0.01066 -0.0309 0.3462 0.09595 -0.00979 0.0658 -0.2125 -0.3062
0.265 0.02669 0.03574 0.2502 0.0622 0.1635 -0.1952 0.2462
-0.3079 0.1383 0.2218 0.02715 0.00024 0.0699 0.2021 -0.1656
-0.1575 -0.07074 0.02017 -0.1796 -0.0998 0.2144 0.0887 -0.0541
0.3838 -0.3176 0.1532 -0.03186 -0.03006 0.236 -0.0799 0.2869
-0.2281 0.1924 0.04208 -0.09595 -0.12085 0.02765 0.195 0.2
0.2344 0.2119 -0.1588 -0.1302 -0.1858 0.0669 0.03928 -0.2065
-0.2798 0.0621 -0.197 -0.1202 -0.05295 0.00793 -0.1225 -0.0269
0.01828 -0.1935 -0.1758 0.10315 0.229 -0.2244 0.1191 -0.1631
0.1685 0.11835 0.05444 0.1543 0.2012 -0.01098 0.02661 0.01776
-0.09595 -0.1707 -0.1262 -0.1428 -0.1481 -0.03308 0.1284 0.0732
-0.1256 0.2189 -0.11365 0.01401 0.0815 0.0005054 0.1442 0.252
0.06076 -0.0967 0.1969 -0.11084 0.2023 -0.4543 0.0351 -0.03119
0.18 -0.3777 0.282 0.03885 0.02324 0.1318 0.1326 0.1194

arith.constant5 f2 [22, 64]
00000000: 2632 5db8 64b3 5db9 c5b1 c9b7 a7b5 c830
00000010: 1fb4 4d1a 4eb1 a7b4 8732 8934 36b3 7e30
00000020: f3b6 9cb8 0cb4 7bb4 1a34 00b7 acb6 c9b2
00000030: 3b33 5cb4 5432 82b6 88b2 e4ad 3bb9 eb32
00000040: b934 9fb5 5f31 bbb6 47b6 d0a0 2530 64b3
00000050: 2ab6 5eb5 4132 5534 c7ad e8b6 1ab7 5c34
00000060: 8c30 a2a1 1eaf 37ab 2db7 e330 8fb8 c530
00000070: 6034 7630 6d34 0e20 df2d a132 f60f 2fb9
00000080: e3b4 d230 cfae 8230 1bb7 b7b8 a4b5 602f
00000090: 5c35 c6b8 c0b5 1db5 29b7 64b5 1f34 b433
000000a0: 442f 70b5 a0b7 7430 9933 0c33 68b8 dd33
000000b0: 7832 23b5 8433 61b9 65b8 23b1 97b9 a0b7
000000c0: f831 f3b3 ecb6 e8b4 33b6 14b5 5131 47a8
000000d0: 11b9 6cb9 27b1 ecb5 60b8 89b3 a2b4 2828
000000e0: 52b7 77b3 bd33 23b7 73b5 ae32 a4b8 ef33
000000f0: 63b3 eb2a fa34 3035 cab6 7531 91b2 4928
00000100: 5fb6 3730 552f fa2a 07b8 b3a9 97b0 07b6
00000110: 0131 a6b6 bdb4 d4ab 71b2 47b7 2533 d2b7
00000120: b8b3 fe32 4e30 60b0 1b33 d630 6b2f 5db2
00000130: b129 7cb7 fcac 36b4 04b9 3cb3 d331 8bba
00000140: 3ab6 0bb2 1634 0230 f32e c42e 81b6 b931
00000150: 3730 e9ac 4930 2eb2 c32a 3431 9c31 ca34
00000160: 23b9 9134 8cb8 fbb6 a4b0 8b2c 55b6 0831
00000170: 6833 97b9 f833 112e 2eb9 1430 b7b8 f6b6
00000180: 5931 c9b6 b8b5 aa24 e92e edb6 8732 c934
00000190: 0dad af31 9e35 83b3 a633 a134 432f 93b6
000001a0: 04b8 0ca4 cd30 722e 5433 8cb8 84a6 ed2c
000001b0: 4bb3 afb6 a126 d3b4 0bb7 9d34 f232 b1b6
000001c0: 80b2 fdb8 c5b2 69b6 a6b8 9334 44b5 59b7
000001d0: 02b8 c9ae 09ac 2933 1731 0f2f 3431 b3af
000001e0: 9f30 33b9 c72e d431 5f32 9cb8 8d2c 7931
000001f0: 05b3 c9a8 3cb5 57b6 54b8 98b7 9b2b 682e
0.1921 -0.5454 -0.231 -0.6704 -0.1803 -0.4866 -0.3533 0.1494
-0.2576 0.003077 -0.1658 -0.2908 0.204 0.2834 -0.2253 0.1404
-0.4343 -0.576 -0.253 -0.28 0.2563 -0.4375 -0.417 -0.212
0.226 -0.2725 0.1978 -0.4067 -0.2041 -0.09204 -0.654 0.2162
0.2952 -0.3513 0.1678 -0.4207 -0.3923 -0.0094 0.1295 -0.231
-0.3853 -0.3354 0.1954 0.2708 -0.0903 -0.4316 -0.4438 0.2725
0.1421 -0.011 -0.1112 -0.05637 -0.4485 0.1527 -0.57 0.149
0.2734 0.1394 0.2766 0.00792 0.09174 0.2072 0.000486 -0.648
-0.3054 0.1506 -0.1064 0.1409 -0.444 -0.5894 -0.3525 0.11523
0.335 -0.5967 -0.3594 -0.3196 -0.4475 -0.337 0.2576 0.2407
0.1135 -0.3398 -0.4766 0.1392 0.2374 0.2202 -0.551 0.2457
0.2021 -0.321 0.2349 -0.6724 -0.5493 -0.1605 -0.6987 -0.4766
0.1865 -0.2484 -0.4326 -0.3066 -0.3875 -0.3174 0.1661 -0.03342
-0.6333 -0.6777 -0.161 -0.37 -0.547 -0.2355 -0.2896 0.03247
-0.4575 -0.2333 0.2418 -0.446 -0.3406 0.2087 -0.58 0.2479
-0.2308 0.05405 0.311 0.3242 -0.4243 0.1705 -0.2052 0.03348
-0.3982 0.1317 0.11456 0.0545 -0.5034 -0.04453 -0.1434 -0.3767
0.1564 -0.4155 -0.2961 -0.06116 -0.2013 -0.4548 0.2233 -0.4888
-0.2412 0.2185 0.1345 -0.1367 0.222 0.1511 0.1159 -0.1989
0.04446 -0.4678 -0.0779 -0.2632 -0.627 -0.2261 0.182 -0.818
-0.3892 -0.1888 0.2554 0.1252 0.1086 0.1057 -0.4065 0.1788
0.1317 -0.0767 0.1339 -0.1931 0.05283 0.1626 0.1753 0.2993
-0.642 0.2854 -0.5684 -0.4363 -0.145 0.071 -0.3958 0.1572
0.2314 -0.6987 0.249 0.0948 -0.6475 0.1274 -0.5894 -0.435
0.1671 -0.424 -0.3574 0.01822 0.108 -0.4329 0.204 0.299
-0.0789 0.1776 0.351 -0.2347 0.239 0.2893 0.11346 -0.411
-0.502 -0.01581 0.15 0.1007 0.229 -0.5684 -0.02545 0.07697
-0.2279 -0.4177 0.0259 -0.3015 -0.4402 0.2883 0.217 -0.4182
-0.2031 -0.6235 -0.2115 -0.4006 -0.581 0.286 -0.329 -0.4592
-0.501 -0.106 -0.06305 0.2238 0.159 0.1103 0.1626 -0.1203
0.1444 -0.65 0.1059 0.1821 0.1991 -0.576 0.0711 0.171
-0.2194 -0.03738 -0.3271 -0.3962 -0.541 -0.4746 0.05942 0.1001
