backend/models/yield_predictor_float16.tflite (tflite, 31712 bytes, 7 tensors)

arith.constant f2 [128, 29]
-0.03513 0.0662 0.015305 0.0393 0.083 0.0812 -0.04056 -0.3596
0.432 -0.2673 -0.1853 -0.0998 -0.0634 -0.1637 -0.1063 -0.292
-0.01701 -0.3357 -0.1964 -0.000997 -0.4478 -0.297 -0.01201 0.02147
0.002851 -0.11646 0.001188 -0.2673 0.0992 0.0454 -0.12384 0.01611
0.00142 -0.02495 -0.002054 0.01355 0.1652 -0.012314 -0.01288 -0.05243
-0.068 -0.183 -0.07574 -0.172 -0.03445 -0.00368 -0.1945 0.07874
-0.09283 -0.05878 -0.1571 -0.2249 0.02806 0.2686 -0.08234 0.08417
-0.1693 0.0245 0.04977 0.0697 0.0555 0.01616 -0.0679 0.04953
0.1393 -0.2482 0.2156 -0.1401 -0.3228 -0.02545 -0.3367 -0.1599
0.19 -0.2253 -0.0915 -0.0683 0.2494 0.04688 -0.2795 0.011856
0.01062 0.2412 -0.07983 -0.2009 0.1902 -0.0545 0.09186 0.1071
0.04553 -0.02464 0.003523 0.02774 0.0512 -0.0282 -0.1559 0.1305
-0.05276 -0.03442 -0.01945 -0.08 0.0007915 0.0725 -0.05566 0.1371
-0.06415 -0.1715 -0.1255 -0.2683 -0.2517 -0.02663 0.0947 0.1012
-0.1746 -0.04788 -0.148 -0.04688 0.11865 0.1318 0.00912 0.0563
-0.1348 0.01444 -0.04678 -0.2922 0.2607 -0.087 -0.2893 -0.1401
-0.01591 -0.1107 -0.1522 -0.1915 -0.1451 -0.1327 -0.0472 -0.06976
-0.2496 -0.1667 0.1101 0.04926 0.1256 0.06604 -0.1644 -0.05908
0.04047 0.0891 0.0757 -0.02147 0.02328 0.1804 -0.013 -0.02531
-0.2979 0.1256 -0.1547 -0.192 -0.04697 0.04855 -0.2262 -0.2041
-0.1259 0.01611 -0.1436 -0.1279 -0.01433 -0.1157 -0.1024 -0.1279
0.07367 0.1104 -0.0558 0.001957 -0.05185 0.09174 -0.2617 0.2632
0.03023 -0.0179 0.177 0.0862 -0.009544 -0.1759 -0.1268 -0.2118
-0.0723 0.3433 -0.1449 -0.0608 -0.1682 0.3394 0.05185 -0.3848
-0.0736 -0.07166 -0.2323 -0.3354 -0.0809 0.2522 -0.097 -0.25
0.1967 0.579 0.00415 -0.03001 -0.06805 0.065 0.0159 0.1537
0.01973 0.002897 -0.2642 -0.0544 -0.1776 0.10315 -0.1442 0.02122
-0.1967 0.2285 -0.1294 0.06976 -0.03032 -0.1039 -0.02513 -0.02612
-0.3384 0.07947 -0.1704 0.1432 0.0332 -0.0813 -0.238 0.1865
-0.11444 -0.1472 0.08325 -0.02385 0.07184 -0.02745 -0.04648 -0.2412
-0.0482 -0.02141 0.04065 -0.3057 0.03433 -0.166 0.195 -0.01151
-0.02948 -0.241 -0.06915 -0.2394 -0.2347 -0.2961 0.1799 -0.1771
00000000: 7fa8 3d2c d623 0829 502d 322d 31a9 c1b5
00000010: e936 47b4 eeb1 63ae 0fac 3db1 ceae acb4
00000020: 5ba4 5fb5 49b2 1594 2ab7 c1b4 26a2 7f25
00000030: d719 74af de14 47b4 592e d029 edaf 2024
00000040: d115 63a6 3598 f022 4931 4ea2 98a2 b6aa
00000050: 5aac dbb1 d9ac 81b1 69a8 899b 39b2 0a2d
00000060: f1ad 86ab 07b1 32b3 2f27 4c34 45ad 632d
00000070: 6bb1 4626 5f2a 762c 1b2b 2324 58ac 572a
00000080: 7530 f1b3 e632 7cb0 2ab5 84a6 63b5 1eb1
00000090: 1432 36b3 dbad 5fac fb33 002a 79b4 1222
000000a0: 7021 b833 1cad 6eb2 1632 faaa e12d db2e
000000b0: d429 4fa6 371b 1a27 8e2a 38a7 fdb0 2d30
000000c0: c1aa 68a8 fba4 1fad 7c12 a42c 20ab 6330
000000d0: 1bac 7db1 04b0 4bb4 07b4 d1a6 102e 7a2e
000000e0: 96b1 21aa bcb0 00aa 982f 3830 ab20 352b
000000f0: 50b0 6523 fda9 adb4 2c34 91ad a1b4 7cb0
00000100: 13a4 16af dfb0 21b2 a5b0 3fb0 0baa 77ac
00000110: fdb3 56b1 0c2f 4e2a 0530 3a2c 43b1 90ab
00000120: 2e29 b42d d82c 7fa5 f625 c631 a8a2 7ba6
00000130: c4b4 0530 f3b0 25b2 03aa 372a 3db3 88b2
00000140: 07b0 2024 98b0 18b0 56a3 68af 8eae 18b0
00000150: b72c 112f 24ab 0218 a3aa df2d 30b4 3634
00000160: bd27 95a4 aa31 842d e3a0 a1b1 0fb0 c7b2
00000170: a1ac 7e35 a3b0 c8ab 62b1 6e35 a32a 28b6
00000180: b6ac 96ac 6fb3 5eb5 2dad 0934 35ae 00b4
00000190: 4b32 a238 401c afa7 5bac 292c 1224 eb30
000001a0: 0d25 ef19 3ab4 f7aa afb1 9a2e 9db0 6f25
000001b0: 4bb2 5033 24b0 772c c3a7 a6ae 6fa6 b0a6
000001c0: 6ab5 162d 74b1 9530 4028 34ad 9eb3 f831
000001d0: 53af b6b0 542d 1ba6 992c 07a7 f3a9 b8b3
000001e0: 2baa 7ba5 3429 e4b4 6528 50b1 3d32 e5a1
000001f0: 8ca7 b6b3 6dac a9b3 83b3 bdb4 c231 abb1

arith.constant1 f2 [128]
0.15 -0.03342 0.0538 0.09784 0.07324 0.0923 0.012985 0.01604
-0.005985 0.0568 -0.07825 -0.10077 0.04938 -0.02339 0.06198 0.07983
0.08575 -0.0269 0.02507 -0.0864 -0.0475 0.08484 0.1013 0.05475
0.0356 0.05606 -0.00508 -0.08923 0.06934 0.04764 0.02034 0.04456
0.02298 0.0921 0.02454 -0.02245 0.05753 0.0464 0.07294 0.02295
0.0664 -0.01753 -0.02797 0.06006 -0.0652 -0.1423 -0.02895 0.0695
-0.0932 0.007996 0.0805 0.07275 0.05194 0.04712 0.1344 0.0963
-0.01884 0.08307 0.1018 0.0951 0.1043 0.044 -0.01581 0.02003
0.0858 0.02333 0.0647 -0.03537 0.0438 0.0721 0.006805 0.11945
0.0593 -0.01285 0.0742 -0.0491 0.06012 0.07367 -0.05063 0.05676
0.09894 0.0594 0.0535 -0.00382 -0.0983 0.0719 0.0433 -0.0994
0.1072 -0.04282 0.05618 0.03506 0.0295 0.0766 0.07996 0.0622
0.0554 0.0837 0.01311 -0.0623 -0.1553 0.00609 0.07697 0.0549
0.05667 0.05734 0.0935 -0.07526 0.04926 0.01578 0.0301 0.093
0.08514 -0.05063 0.0758 0.10187 0.10236 0.04767 0.06113 0.009796
0.0437 -0.072 -0.0283 0.07153 -0.0702 0.0491 -0.04138 0.0876
00000000: cd30 47a8 e32a 432e b02c e82d a622 1b24
00000010: 219e 452b 02ad 73ae 522a fda5 ef2b 1c2d
00000020: 7d2d e3a6 6b26 88ad 14aa 6e2d 7c2e 022b
00000030: 8f28 2d2b 349d b6ad 702c 192a 3525 b429
00000040: e225 e52d 4826 bfa5 5d2b f029 ab2c e025
00000050: 402c 7da4 29a7 b02b 2cac 8eb0 69a7 732c
00000060: f7ad 1820 272d a82c a62a 082a 4d30 2a2e
00000070: d3a4 512d 842e 162e ad2e a229 0ca4 2125
00000080: 7e2d f925 242c 87a8 9b29 9d2c f81e a52f
00000090: 972b 94a2 c02c 49aa b22b b72c 7baa 442b
000000a0: 552e 9a2b d92a d39b 4bae 9a2c 8b29 5dae
000000b0: dc2e 7ba9 312b 7d28 8d27 e72c 1e2d f62b
000000c0: 172b 5b2d b622 f9ab f8b0 3c1e ed2c 072b
000000d0: 412b 572b fc2d d1ac 4e2a 0a24 b527 f42d
000000e0: 732d 7baa da2c 852e 8d2e 1a2a d32b 0421
000000f0: 9829 9cac 3fa7 942c 7eac 492a 4ca9 9b2d

arith.constant3 f2 [64]
0.11646 0.1583 0.0898 0.1864 0.1779 0.2059 0.2166 0.1573
0.1951 0.2281 0.2076 -0.0292 0.19 0.007023 0.01889 0.1975
0.2908 0.013466 0.2076 0.2473 0.2249 -0.09735 0.1912 0.2361
0.2169 -0.0435 0.1953 0.2233 0.2446 0.1816 0.022 0.2032
0.1024 0.2096 -0.0583 0.253 0.1696 0.1893 0.2405 0.004032
0.2484 0.2196 0.2473 0.2474 0.2157 0.1954 0.2208 0.1915
0.007027 0.2167 0.234 0.2742 -0.0583 0.2534 -0.05878 0.2036
0.2032 0.2146 0.2617 0.2805 0.2213 0.02377 0.1871 -0.02966
00000000: 742f 1131 bf2d f731 b131 9732 ee32 0931
00000010: 3e32 4d33 a532 7aa7 1432 311f d624 5232
00000020: a734 e522 a532 ea33 3233 3bae 1e32 8e33
00000030: f132 91a9 4032 2533 d433 d031 a225 8132
00000040: 8e2e b532 76ab 0c34 6d31 0f32 b233 211c
00000050: f333 0733 ea33 eb33 e732 4132 1133 2132
00000060: 321f ef32 7d33 6334 76ab 0e34 86ab 8432
00000070: 8132 de32 3034 7d34 1533 1626 fd31 98a7

arith.constant4 f2 [32]
0.5845 -0.02939 -0.04626 -0.01724 0.608 0.611 0.661 0.5386
0.57 0.499 0.4204 0.5894 0.0892 0.892 -0.01418 -0.0332
0.5127 0.5747 -0.03986 -0.0397 0.497 0.516 0.9272 0.5625
0.8115 0.671 0.595 -0.02867 -0.0527 -0.0624 0.63 0.48
00000000: ad38 86a7 eca9 6aa4 dd38 e338 4a39 4f38
00000010: 8f38 fc37 ba36 b738 b52d 233b 43a3 40a8
00000020: 1a38 9938 1aa9 15a9 f437 2138 6b3b 8038
00000030: 7e3a 5e39 c338 57a7 bfaa fdab 0a39 ae37

arith.constant5 f2 [64, 128]
8.82e-05 -0.3052 -0.1744 0.125 0.289 0.01936 -0.327 -0.11334
-0.06885 -0.162 0.01924 -0.0894 -0.1747 0.00445 -0.241 -0.208
0.2788 -0.3438 -0.0368 0.1293 -0.02597 -0.08264 -0.182 -0.2057
-0.01741 -0.3003 -0.286 0.0664 -0.1415 0.157 0.2123 0.09784
0.06683 -0.2059 -0.1109 -0.05286 -0.1089 -0.03177 -0.2925 -0.05713
-0.1105 -0.374 0.349 0.1418 0.03864 0.0806 0.03775 -0.076
-0.1475 -0.0678 0.1255 0.04803 -0.1393 0.165 -0.0607 -0.3442
-0.06506 -0.2947 -0.074 0.2335 0.01909 -0.108 0.3816 0.2708
0.1188 -0.2544 -0.1004 -0.003904 0.1519 0.001437 0.0298 -0.0949
0.28 -0.242 -0.2245 -0.02644 -0.0647 0.2495 -0.1565 -0.115
0.379 -0.187 -0.03323 -0.2196 -0.0237 -0.264 -0.134 -0.10455
-0.1149 -0.0778 -0.10016 0.0852 -0.1707 -0.1464 -0.2152 -0.3901
0.1553 -0.1987 -0.0318 0.05887 0.11633 -0.08093 -0.1423 0.09717
-0.2465 -0.1548 -0.1747 -0.1693 -0.161 -0.2766 0.2556 0.1102
-0.3552 -0.01613 -0.304 -0.1735 0.01897 -0.3904 0.03125 -0.253
0.3394 0.00912 -0.02808 -0.0792 0.1832 -0.2603 0.04114 -0.00843
0.03937 -0.11584 -0.333 0.02986 0.0613 -0.0865 -0.225 -0.11487
-0.0709 -0.286 -0.077 -0.2313 0.0966 0.05264 -0.1382 -0.013
-0.1129 -0.1547 0.09985 0.2522 -0.006073 0.04285 -0.1449 -0.0887
-0.1525 -0.1705 -0.002995 0.4634 0.1134 0.007763 -0.01368 0.1271
0.0803 -0.2651 0.01758 0.0664 -0.1329 -0.0723 -0.1454 -0.1412
-0.04398 -0.2583 0.3062 0.2732 0.01941 0.2695 -0.05603 -0.1335
-0.3516 -0.10626 0.01924 0.0825 0.03044 0.0888 -0.2094 -0.04724
0.05957 -0.04532 -0.01384 0.2446 -0.0961 0.10205 0.4421 0.094
0.05075 -0.05286 -0.179 -0.03105 0.01819 -0.0361 -0.03897 -0.11676
0.05646 -0.1597 -0.1738 0.011986 0.10095 0.245 -0.02925 -0.1062
0.1532 0.01569 -0.05307 -0.3381 -0.1076 -0.2365 0.04263 -0.266
-0.1754 0.09576 -0.0867 -0.05957 -0.177 -0.3086 0.0009513 -0.03772
0.27 -0.2522 0.1318 -0.03842 -0.00412 0.06223 -0.1835 -0.1924
-0.234 0.05725 -0.1392 -0.0226 0.02513 -0.3672 0.0935 -0.06885
-0.3125 -0.2493 0.000891 0.02097 0.11005 -0.264 0.143 -0.0786
0.0798 0.2383 -0.1425 -0.02823 0.0892 -0.0905 0.2046 -0.135
00000000: c805 e2b4 95b1 0030 a034 f524 3bb5 41af
00000010: 68ac 2fb1 ed24 b9ad 97b1 8f1c b6b3 a8b2
00000020: 7634 80b5 b6a8 2330 a6a6 4aad d3b1 95b2
00000030: 75a4 ceb4 93b4 402c 87b0 0631 cb32 432e
00000040: 472c 97b2 19af c4aa f8ae 11a8 aeb4 50ab
00000050: 12af fcb5 9635 8a30 f228 292d d528 ddac
00000060: b8b0 57ac 0430 262a 75b0 4831 c5ab 82b5
00000070: 2aac b7b4 bcac 7933 e324 e9ae 1b36 5534
00000080: 9a2f 12b4 6dae ff9b dc30 e315 a127 13ae
00000090: 7b34 beb3 2fb3 c5a6 24ac fc33 02b1 5caf
000000a0: 1036 fcb1 41a8 07b3 11a6 39b4 4ab0 b1ae
000000b0: 5baf fbac 69ae 742d 76b1 afb0 e3b2 3eb6
000000c0: f830 5cb2 12a8 892b 722f 2ead 8eb0 382e
000000d0: e3b3 f4b0 97b1 6bb1 27b1 6db4 1734 0e2f
000000e0: afb5 21a4 ddb4 8db1 db24 3fb6 0028 0cb4
000000f0: 6e35 ab20 30a7 12ad dd31 2ab4 4429 51a0
00000100: 0a29 6aaf 54b5 a527 d92b 89ad 33b3 5aaf
00000110: 8aac 93b4 eeac 67b3 2f2e bd2a 6cb0 a8a2
00000120: 3aaf f3b0 642e 0934 389e 7c29 a3b0 adad
00000130: e1b0 75b1 229a 6a37 422f f31f 01a3 1130
00000140: 242d 3eb4 8024 402c 41b0 a1ac a7b0 85b0
00000150: a1a9 22b4 e634 5f34 f824 5034 2cab 46b0
00000160: a0b5 cdae ed24 482d cb27 af2d b3b2 0caa
00000170: a02b cda9 16a3 d433 27ae 882e 1337 042e
00000180: 7f2a c4aa bab1 f3a7 a824 9fa8 fda8 79af
00000190: 3a2b 1cb1 90b1 2322 762e d733 7da7 ccae
000001a0: e730 0424 cbaa 69b5 e3ae 91b3 7529 42b4
000001b0: 9db1 212e 8cad a0ab aab1 f0b4 cb13 d4a8
000001c0: 5234 09b4 3830 eba8 389c f72b dfb1 28b2
000001d0: 7db3 542b 74b0 c9a5 6f26 e0b5 fc2d 68ac
000001e0: 00b5 fab3 4d13 5e25 0b2f 39b4 9330 08ad
000001f0: 1b2d a033 8fb0 3aa7 b52d cbad 8c32 52b0

arith.constant6 f2 [32, 64]
-0.5576 -0.401 -0.2279 0.3464 -0.10284 -0.03983 0.1243 0.01917
0.1615 0.01996 0.1536 -0.1165 -0.1366 -0.00346 0.1511 -0.0952
0.0601 0.06396 -0.1624 0.1098 0.3674 -0.1963 -0.04987 0.2351
0.1873 -0.2603 0.3074 0.1841 0.2695 -0.05023 0.1825 0.1014
-0.03372 0.1455 -0.01964 0.2861 -0.0174 0.03534 0.3777 0.1234
0.3147 0.06665 -0.08246 -0.06104 0.02437 0.2434 0.253 0.2495
-0.05777 0.2302 0.01381 0.3298 0.153 0.3752 -0.3125 0.2245
-0.0809 0.02916 -0.01468 0.05975 0.10535 0.0452 0.07513 -0.1049
0.1865 0.37 0.2104 0.06464 0.05777 -0.2268 -0.297 -0.1271
0.1074 -0.10297 0.0666 -0.05383 -0.2455 -0.1159 -0.2057 0.02618
0.02907 -0.1874 0.0733 0.1412 -0.269 -0.10205 -0.1266 -0.2411
-0.1693 -0.2445 0.1398 -0.0897 -0.2466 -0.2852 -0.2471 -0.1001
0.0503 -0.1655 0.001801 -0.2942 0.05865 -0.1046 0.1252 -0.0931
0.0679 -0.0867 0.06174 -0.09344 0.11926 -0.05515 0.06055 0.1562
0.12494 -0.2373 0.1464 -0.273 -0.2476 0.0357 -0.38 0.097
0.1523 -0.0999 -0.2612 -0.0739 -0.0983 -0.2817 -0.10974 -0.05148
0.4119 -0.108 -0.2854 -0.211 -0.257 0.1625 0.1361 0.04858
0.06915 0.0851 0.0625 -0.1682 -0.255 0.0776 -0.06165 -0.085
-0.1729 0.02805 -0.0812 -0.0644 -0.1536 -0.1482 0.0698 -0.0435
-0.295 -0.2554 0.06714 0.0759 0.1317 0.10223 0.03854 0.0409
-0.1556 0.05164 -0.0455 -0.2157 -0.1161 -0.1661 -0.084 0.04678
-0.07056 -0.1846 0.1142 -0.1047 0.0683 -0.01009 -0.1368 -0.0724
0.02612 0.08075 0.10986 -0.2551 0.09796 -0.2094 -0.10736 -0.096
0.013 -0.1332 -0.2091 -0.156 -0.2156 -0.3013 -0.287 0.0667
-0.2432 -0.3657 0.12115 0.0605 0.0965 -0.2205 -0.03934 -0.2251
-0.086 -0.0924 -0.1482 0.2102 -0.11993 0.0593 0.125 -0.0899
-0.2135 -0.2502 -0.2242 -0.12335 -0.2328 -0.02322 -0.11395 0.003483
0.01449 -0.141 0.03644 0.1305 -0.012535 -0.1948 -0.10895 -0.01005
-0.0891 -0.02423 0.1536 0.0294 0.0527 -0.0749 -0.1433 -0.1489
-0.1553 0.1525 0.09955 -0.2446 0.0932 -0.0404 -0.1772 -0.2208
0.1146 -0.1298 -0.1549 -0.2255 -0.1221 0.00897 0.1045 -0.1996
0.1278 -0.1302 0.1597 -0.1436 0.02274 -0.0904 0.0102 0.1693
00000000: 76b8 6ab6 4bb3 8b35 95ae 19a9 f52f e824
00000010: 2b31 1c25 ea30 75af 5fb0 169b d630 18ae
00000020: b12b 182c 32b1 072f e135 48b2 62aa 8633
00000030: fe31 2ab4 eb34 e431 5034 6eaa d731 7d2e
00000040: 51a8 a830 07a5 9434 74a4 8628 0b36 e62f
00000050: 0935 442c 47ad d0ab 3d26 ca33 0c34 fc33
00000060: 65ab 5e33 1223 4735 e530 0136 00b5 2f33
00000070: 2dad 7727 84a3 a62b be2e c929 cf2c b7ae
00000080: f831 ec35 bc32 232c 652b 42b3 c1b4 11b0
00000090: e02e 97ae 432c e4aa dbb3 6baf 95b2 b426
000000a0: 7127 ffb1 b12c 8530 4eb4 88ae 0db0 b7b3
000000b0: 6bb1 d3b3 7930 bead e4b3 90b4 e8b3 68ae
000000c0: 702a 4cb1 6017 b5b4 822b b2ae 0230 f5ad
000000d0: 582c 8cad e72b fbad a22f 0fab c02b 0031
000000e0: ff2f 98b3 af30 5eb4 ecb3 9228 14b6 352e
000000f0: e030 65ae 2eb4 bbac 4bae 82b4 06af 97aa
00000100: 9736 e9ae 91b4 c1b2 1db4 3331 5b30 382a
00000110: 6d2c 722d 002c 62b1 14b4 f72c e4ab 71ad
00000120: 88b1 2e27 32ad 1fac eab0 beb0 782c 91a9
00000130: b8b4 16b4 4c2c dc2c 3730 8b2e ef28 3c29
00000140: fbb0 9c2a d3a9 e7b2 6eaf 51b1 60ad fd29
00000150: 84ac e8b1 4f2f b3ae 5f2c 2ba1 61b0 a2ac
00000160: b026 2b2d 082f 15b4 452e b3b2 dfae 25ae
00000170: a822 43b0 b1b2 feb0 e6b2 d2b4 98b4 452c
00000180: c8b3 dab5 c12f be2b 2d2e 0eb3 09a9 34b3
00000190: 81ad eaad beb0 ba32 adaf 972b 0030 c1ad
000001a0: d5b2 01b4 2db3 e5af 73b3 f2a5 4baf 221b
000001b0: 6b23 83b0 aa28 2d30 6ba2 3cb2 f9ae 25a1
000001c0: b4ad 34a6 ea30 8727 bf2a cbac 96b0 c4b0
000001d0: f8b0 e130 5f2e d4b3 f72d 2ca9 acb1 11b3
000001e0: 562f 27b0 f5b0 37b3 d0af 9820 b02e 63b2
000001f0: 1730 2bb0 1c31 98b0 d225 c9ad 3921 6b31

arith.constant7 f2 [1, 32]
0.2411 -0.05753 -0.07385 -0.2935 0.553 0.3838 0.159 0.2769
0.2493 0.4666 0.3235 0.2188 -0.1964 0.4841 -0.265 -0.182
0.5186 0.3047 -0.198 -0.2231 0.492 0.358 0.518 0.3335
0.3467 0.148 0.1987 -0.3572 -0.1221 -0.05786 0.152 0.4568
00000000: b733 5dab baac b2b4 6d38 2436 1731 6e34
00000010: fa33 7737 2d35 0033 49b2 bf37 3db4 d3b1
00000020: 2638 e034 56b2 24b3 df37 ba35 2538 5635
00000030: 8c35 bc30 5c32 b7b5 d0af 68ab dd30 4f37
